…
ng2D(pool_size=(3, 3)))\n","#Model.add(Dropout(0.25))\n","Model.add(Flatten())\n","Model.add(Dense(units=256, kernel_initializer='normal', activation='relu'))\n","#Model.add(Dropout(0.5))\n","Model.add(Dense(units=10, kernel_initializer='normal', activation='softmax'))\n","\n","Model.summary()"],"execution_count":0,"outputs":[{"output_type":"stream","text":["_________________________________________________________________\n","Layer (type)                 Output Shape              Param #   \n","=================================================================\n","conv2d_13 (Conv2D)           (None, 28, 28, 16)        160       \n","_________________________________________________________________\n","max_pooling2d_13 (MaxPooling (None, 9, 9, 16)          0         \n","_________________________________________________________________\n","conv2d_14 (Conv2D)           (None, 9, 9, 16)          2320      \n","_________________________________________________________________\n","max_pooling2d_14 (MaxPooling (None, 3, 3, 16)          0         \n","_________________________________________________________________\n","flatten_7 (Flatten)          (None, 144)               0         \n","_________________________________________________________________\n","dense_13 (Dense)             (None, 256)               37120     \n","_________________________________________________________________\n","dense_14 (Dense)             (None, 10)                2570      \n","=================================================================\n","Total params: 42,170\n","Trainable params: 42,170\n","Non-trainable params: 0\n","_________________________________________________________________\n"],"name":"stdout"}]},{"cell_type":"code","metadata":{"colab_type":"code","id":"Dy-6MYcHpPtx","outputId":"66d4e2f3-debc-4ae1-d513-14350aaa5b19","executionInfo":{"status":
…
